----------------------------------------------------------------
        Layer (type)               Output Shape         Param #
================================================================
            Conv1d-1             [-1, 16, 6000]             112
            Conv1d-2             [-1, 16, 6000]             208
            Conv1d-3             [-1, 16, 6000]             400
       BatchNorm1d-4             [-1, 48, 6000]              96
              ReLU-5             [-1, 48, 6000]               0
 AdaptiveAvgPool1d-6                [-1, 48, 1]               0
            Linear-7                    [-1, 3]             144
              ReLU-8                    [-1, 3]               0
            Linear-9                   [-1, 48]             144
          Sigmoid-10                   [-1, 48]               0
    SEAttention1d-11             [-1, 48, 6000]               0
      macnn_block-12             [-1, 48, 6000]               0
           Conv1d-13             [-1, 16, 6000]           2,320
           Conv1d-14             [-1, 16, 6000]           4,624
           Conv1d-15             [-1, 16, 6000]           9,232
      BatchNorm1d-16             [-1, 48, 6000]              96
             ReLU-17             [-1, 48, 6000]               0
AdaptiveAvgPool1d-18                [-1, 48, 1]               0
           Linear-19                    [-1, 3]             144
             ReLU-20                    [-1, 3]               0
           Linear-21                   [-1, 48]             144
          Sigmoid-22                   [-1, 48]               0
    SEAttention1d-23             [-1, 48, 6000]               0
      macnn_block-24             [-1, 48, 6000]               0
        MaxPool1d-25             [-1, 48, 3000]               0
           Conv1d-26             [-1, 32, 3000]           4,640
           Conv1d-27             [-1, 32, 3000]           9,248
           Conv1d-28             [-1, 32, 3000]          18,464
      BatchNorm1d-29             [-1, 96, 3000]             192
             ReLU-30             [-1, 96, 3000]               0
AdaptiveAvgPool1d-31                [-1, 96, 1]               0
           Linear-32                    [-1, 6]             576
             ReLU-33                    [-1, 6]               0
           Linear-34                   [-1, 96]             576
          Sigmoid-35                   [-1, 96]               0
    SEAttention1d-36             [-1, 96, 3000]               0
      macnn_block-37             [-1, 96, 3000]               0
           Conv1d-38             [-1, 32, 3000]           9,248
           Conv1d-39             [-1, 32, 3000]          18,464
           Conv1d-40             [-1, 32, 3000]          36,896
      BatchNorm1d-41             [-1, 96, 3000]             192
             ReLU-42             [-1, 96, 3000]               0
AdaptiveAvgPool1d-43                [-1, 96, 1]               0
           Linear-44                    [-1, 6]             576
             ReLU-45                    [-1, 6]               0
           Linear-46                   [-1, 96]             576
          Sigmoid-47                   [-1, 96]               0
    SEAttention1d-48             [-1, 96, 3000]               0
      macnn_block-49             [-1, 96, 3000]               0
        MaxPool1d-50             [-1, 96, 1500]               0
           Conv1d-51             [-1, 64, 1500]          18,496
           Conv1d-52             [-1, 64, 1500]          36,928
           Conv1d-53             [-1, 64, 1500]          73,792
      BatchNorm1d-54            [-1, 192, 1500]             384
             ReLU-55            [-1, 192, 1500]               0
AdaptiveAvgPool1d-56               [-1, 192, 1]               0
           Linear-57                   [-1, 12]           2,304
             ReLU-58                   [-1, 12]               0
           Linear-59                  [-1, 192]           2,304
          Sigmoid-60                  [-1, 192]               0
    SEAttention1d-61            [-1, 192, 1500]               0
      macnn_block-62            [-1, 192, 1500]               0
           Conv1d-63             [-1, 64, 1500]          36,928
           Conv1d-64             [-1, 64, 1500]          73,792
           Conv1d-65             [-1, 64, 1500]         147,520
      BatchNorm1d-66            [-1, 192, 1500]             384
             ReLU-67            [-1, 192, 1500]               0
AdaptiveAvgPool1d-68               [-1, 192, 1]               0
           Linear-69                   [-1, 12]           2,304
             ReLU-70                   [-1, 12]               0
           Linear-71                  [-1, 192]           2,304
          Sigmoid-72                  [-1, 192]               0
    SEAttention1d-73            [-1, 192, 1500]               0
      macnn_block-74            [-1, 192, 1500]               0
AdaptiveAvgPool1d-75               [-1, 192, 1]               0
           Linear-76                   [-1, 16]           3,088
================================================================
Total params: 517,840
Trainable params: 517,840
Non-trainable params: 0
----------------------------------------------------------------
Input size (MB): 0.05
Forward/backward pass size (MB): 68.13
Params size (MB): 1.98
Estimated Total Size (MB): 70.15
----------------------------------------------------------------
Starting training...
…
