----------------------------------------------------------------
        Layer (type)               Output Shape         Param #
================================================================
            Conv1d-1             [-1, 32, 6000]             224
            Conv1d-2             [-1, 32, 6000]             416
            Conv1d-3             [-1, 32, 6000]             800
       BatchNorm1d-4             [-1, 96, 6000]             192
              ReLU-5             [-1, 96, 6000]               0
 AdaptiveAvgPool1d-6                [-1, 96, 1]               0
            Linear-7                    [-1, 6]             576
              ReLU-8                    [-1, 6]               0
            Linear-9                   [-1, 96]             576
          Sigmoid-10                   [-1, 96]               0
    SEAttention1d-11             [-1, 96, 6000]               0
      macnn_block-12             [-1, 96, 6000]               0
           Conv1d-13             [-1, 32, 6000]           9,248
           Conv1d-14             [-1, 32, 6000]          18,464
           Conv1d-15             [-1, 32, 6000]          36,896
      BatchNorm1d-16             [-1, 96, 6000]             192
             ReLU-17             [-1, 96, 6000]               0
AdaptiveAvgPool1d-18                [-1, 96, 1]               0
           Linear-19                    [-1, 6]             576
             ReLU-20                    [-1, 6]               0
           Linear-21                   [-1, 96]             576
          Sigmoid-22                   [-1, 96]               0
    SEAttention1d-23             [-1, 96, 6000]               0
      macnn_block-24             [-1, 96, 6000]               0
        MaxPool1d-25             [-1, 96, 3000]               0
           Conv1d-26             [-1, 64, 3000]          18,496
           Conv1d-27             [-1, 64, 3000]          36,928
           Conv1d-28             [-1, 64, 3000]          73,792
      BatchNorm1d-29            [-1, 192, 3000]             384
             ReLU-30            [-1, 192, 3000]               0
AdaptiveAvgPool1d-31               [-1, 192, 1]               0
           Linear-32                   [-1, 12]           2,304
             ReLU-33                   [-1, 12]               0
           Linear-34                  [-1, 192]           2,304
          Sigmoid-35                  [-1, 192]               0
    SEAttention1d-36            [-1, 192, 3000]               0
      macnn_block-37            [-1, 192, 3000]               0
           Conv1d-38             [-1, 64, 3000]          36,928
           Conv1d-39             [-1, 64, 3000]          73,792
           Conv1d-40             [-1, 64, 3000]         147,520
      BatchNorm1d-41            [-1, 192, 3000]             384
             ReLU-42            [-1, 192, 3000]               0
AdaptiveAvgPool1d-43               [-1, 192, 1]               0
           Linear-44                   [-1, 12]           2,304
             ReLU-45                   [-1, 12]               0
           Linear-46                  [-1, 192]           2,304
          Sigmoid-47                  [-1, 192]               0
    SEAttention1d-48            [-1, 192, 3000]               0
      macnn_block-49            [-1, 192, 3000]               0
        MaxPool1d-50            [-1, 192, 1500]               0
           Conv1d-51            [-1, 128, 1500]          73,856
           Conv1d-52            [-1, 128, 1500]         147,584
           Conv1d-53            [-1, 128, 1500]         295,040
      BatchNorm1d-54            [-1, 384, 1500]             768
             ReLU-55            [-1, 384, 1500]               0
AdaptiveAvgPool1d-56               [-1, 384, 1]               0
           Linear-57                   [-1, 24]           9,216
             ReLU-58                   [-1, 24]               0
           Linear-59                  [-1, 384]           9,216
          Sigmoid-60                  [-1, 384]               0
    SEAttention1d-61            [-1, 384, 1500]               0
      macnn_block-62            [-1, 384, 1500]               0
           Conv1d-63            [-1, 128, 1500]         147,584
           Conv1d-64            [-1, 128, 1500]         295,040
           Conv1d-65            [-1, 128, 1500]         589,952
      BatchNorm1d-66            [-1, 384, 1500]             768
             ReLU-67            [-1, 384, 1500]               0
AdaptiveAvgPool1d-68               [-1, 384, 1]               0
           Linear-69                   [-1, 24]           9,216
             ReLU-70                   [-1, 24]               0
           Linear-71                  [-1, 384]           9,216
          Sigmoid-72                  [-1, 384]               0
    SEAttention1d-73            [-1, 384, 1500]               0
      macnn_block-74            [-1, 384, 1500]               0
AdaptiveAvgPool1d-75               [-1, 384, 1]               0
           Linear-76                   [-1, 16]           6,160
================================================================
Total params: 2,059,792
Trainable params: 2,059,792
Non-trainable params: 0
----------------------------------------------------------------
Input size (MB): 0.05
Forward/backward pass size (MB): 136.27
Params size (MB): 7.86
Estimated Total Size (MB): 144.17
----------------------------------------------------------------
Starting training...
…
