----------------------------------------------------------------
        Layer (type)               Output Shape         Param #
================================================================
            Conv1d-1               [-1, 8, 256]              56
            Conv1d-2               [-1, 8, 256]             104
            Conv1d-3               [-1, 8, 256]             200
       BatchNorm1d-4              [-1, 24, 256]              48
              ReLU-5              [-1, 24, 256]               0
 AdaptiveAvgPool1d-6                [-1, 24, 1]               0
            Linear-7                    [-1, 1]              24
              ReLU-8                    [-1, 1]               0
            Linear-9                   [-1, 24]              24
          Sigmoid-10                   [-1, 24]               0
    SEAttention1d-11              [-1, 24, 256]               0
      macnn_block-12              [-1, 24, 256]               0
           Conv1d-13               [-1, 8, 256]             584
           Conv1d-14               [-1, 8, 256]           1,160
           Conv1d-15               [-1, 8, 256]           2,312
      BatchNorm1d-16              [-1, 24, 256]              48
             ReLU-17              [-1, 24, 256]               0
AdaptiveAvgPool1d-18                [-1, 24, 1]               0
           Linear-19                    [-1, 1]              24
             ReLU-20                    [-1, 1]               0
           Linear-21                   [-1, 24]              24
          Sigmoid-22                   [-1, 24]               0
    SEAttention1d-23              [-1, 24, 256]               0
      macnn_block-24              [-1, 24, 256]               0
        MaxPool1d-25              [-1, 24, 128]               0
           Conv1d-26              [-1, 16, 128]           1,168
           Conv1d-27              [-1, 16, 128]           2,320
           Conv1d-28              [-1, 16, 128]           4,624
      BatchNorm1d-29              [-1, 48, 128]              96
             ReLU-30              [-1, 48, 128]               0
AdaptiveAvgPool1d-31                [-1, 48, 1]               0
           Linear-32                    [-1, 3]             144
             ReLU-33                    [-1, 3]               0
           Linear-34                   [-1, 48]             144
          Sigmoid-35                   [-1, 48]               0
    SEAttention1d-36              [-1, 48, 128]               0
      macnn_block-37              [-1, 48, 128]               0
           Conv1d-38              [-1, 16, 128]           2,320
           Conv1d-39              [-1, 16, 128]           4,624
           Conv1d-40              [-1, 16, 128]           9,232
      BatchNorm1d-41              [-1, 48, 128]              96
             ReLU-42              [-1, 48, 128]               0
AdaptiveAvgPool1d-43                [-1, 48, 1]               0
           Linear-44                    [-1, 3]             144
             ReLU-45                    [-1, 3]               0
           Linear-46                   [-1, 48]             144
          Sigmoid-47                   [-1, 48]               0
    SEAttention1d-48              [-1, 48, 128]               0
      macnn_block-49              [-1, 48, 128]               0
        MaxPool1d-50               [-1, 48, 64]               0
           Conv1d-51               [-1, 32, 64]           4,640
           Conv1d-52               [-1, 32, 64]           9,248
           Conv1d-53               [-1, 32, 64]          18,464
      BatchNorm1d-54               [-1, 96, 64]             192
             ReLU-55               [-1, 96, 64]               0
AdaptiveAvgPool1d-56                [-1, 96, 1]               0
           Linear-57                    [-1, 6]             576
             ReLU-58                    [-1, 6]               0
           Linear-59                   [-1, 96]             576
          Sigmoid-60                   [-1, 96]               0
    SEAttention1d-61               [-1, 96, 64]               0
      macnn_block-62               [-1, 96, 64]               0
           Conv1d-63               [-1, 32, 64]           9,248
           Conv1d-64               [-1, 32, 64]          18,464
           Conv1d-65               [-1, 32, 64]          36,896
      BatchNorm1d-66               [-1, 96, 64]             192
             ReLU-67               [-1, 96, 64]               0
AdaptiveAvgPool1d-68                [-1, 96, 1]               0
           Linear-69                    [-1, 6]             576
             ReLU-70                    [-1, 6]               0
           Linear-71                   [-1, 96]             576
          Sigmoid-72                   [-1, 96]               0
    SEAttention1d-73               [-1, 96, 64]               0
      macnn_block-74               [-1, 96, 64]               0
AdaptiveAvgPool1d-75                [-1, 96, 1]               0
           Linear-76                    [-1, 6]             582
================================================================
Total params: 129,894
Trainable params: 129,894
Non-trainable params: 0
----------------------------------------------------------------
Input size (MB): 0.00
Forward/backward pass size (MB): 1.46
Params size (MB): 0.50
Estimated Total Size (MB): 1.96
----------------------------------------------------------------
Starting training...
…
